algorithm-part/checkpoints/ckpt_aml.pth (torch, 54431 bytes, 4 tensors)

mlp.weight f4 [128, 100]
00000000: 7f5f bf3d 4d74 0bbe 77fa 78bd db5b 363d
00000010: 9abd 35bd 45d6 1fbe 95d6 4ebd f912 a4bc
00000020: 7a2d 06be 0163 b7bd bad4 b33d 6544 463e
00000030: 3b5f c83d 2a15 f1bc f3fc 823d bc9b 2cbe
00000040: 62fa c73d ba46 c5bc 34f8 60be 4d2c 29be
00000050: c61c b1bd 6baf 1c3d 06f3 61be 4f51 5cbe
00000060: a650 3cbe 26be c0bd 0e9d bd3d 86de 03be
00000070: f3bd 6dbe 4d28 5dbe c13c d5bd c347 4bbe
00000080: adec 513e c7ca f6bd 3218 de3d b34f 59be
00000090: 5299 193e 4b36 09bd 91e2 333e 9e0c 3a3e
000000a0: 6241 083e 1827 163e e371 433e 1f7a 27be
000000b0: f7fe 5fbe 007b 403c 1198 ffbd f1cc b8bd
000000c0: 9db5 01bd 9613 d73c f23a 1e3d a2d5 053e
000000d0: 71e6 29be 51eb b13d 5c07 19bd db7b 903d
000000e0: 166b 033d 3acc 5b3e 6521 b13d e5a6 00ba
000000f0: 5509 cb3d c5a2 073e 10bc 313e 20ef 12be
00000100: ad1f 753c 6831 e33c 0004 4b3d 72c4 a0bd
00000110: 2310 513e f1c3 313e 65ed bf3d cbed 663d
00000120: 9a5f b0bd 8f8c dfbd c009 3c3e f49d 64be
00000130: 48ac 1dbe c234 2e3d f413 81bd 553e 0bbc
00000140: 018d bc3d be4b 35be 71b1 3ebe 6fdf 173e
00000150: 3140 e0bd 2954 52be 82c1 6bbc 6416 d13d
00000160: 12d3 17be 0ca3 053b e670 8d3d 3086 47be
00000170: 982d f9bb 54db 213d 18d1 973d 8081 25bd
00000180: 4526 353e 322c 21bd df0e ab3d 3344 45bd
00000190: 69ca 50be 8283 d7bd 8d87 9ebd b34f 08bd
000001a0: d379 3e3d 0676 eabc bbb7 bcbd 1fd2 2abd
000001b0: a3a4 e8bd 8209 7d3d c76b 833c 6c55 0c3e
000001c0: ea0b 243e 80c4 4f3e 6d38 983d 062f 133e
000001d0: 6e32 7b3b fa6a 223e aca8 e63d 22cd 2c3e
000001e0: ad7c 853d 0e76 0b3e 81e1 fbbd 2dbf 843d
000001f0: 2bca 273d 2876 5f3e bbba 06be 8402 f8bd
00000200: 7ded c63d 2b61 54be 8974 b3bd 9def 0fbe
00000210: 808e fb3d bfdd 1dbe 9fc5 d73c 1981 a43d
00000220: 4b0e 4bbd 274d 4bbd 773d 843b 2a52 03be
00000230: ce52 79bc 9719 dd3b 6ef4 e7bb 5831 dbbd
00000240: 4769 5f3c 7e73 083e e99c f8bd 1f40 a8bd
00000250: f30b 5d3d c7b8 17bc cb2d 54be 1e31 243e
00000260: 936b 453d 72a2 063e 332f 4cbe 0be0 48be
00000270: 8f92 8abd 9f06 5dbd 8ee0 233e 5e7b f9bc
00000280: f309 1abd 65f0 2ebe b1a7 aa3d a204 71bd
00000290: d8c3 033e 9398 4e3d 9297 003e e7a8 0ebe
000002a0: 9f31 95bd f784 353c ca50 343e eb0d 403d
000002b0: cfe4 f1bd 2b97 95bd f44c 353e e97e c73d
000002c0: 8950 de3d 05a6 39be 5fb9 10bd 27c9 b0bd
000002d0: bb73 093d 01ef 96bd 7ad0 4d3e f782 bb3a
000002e0: 7328 20bd ee2a 393e 020c 6e3d b023 2bbe
000002f0: c29a 1abe 8dad be3d dfa6 bfbc bfd5 823c
00000300: 5fc1 42be 5104 33be 5961 a5bd 3d1a 90bd
00000310: 325e 593e 8d01 8fbd 2cdd 3f3e 966f 1c3e
00000320: 16d7 28b8 4bb2 393d be00 d3bd 3f64 c5bd
00000330: 137d 533e 1371 8abd 43b8 583e 83b2 b13c
00000340: 647c 9ebd 65f8 33be e440 60be 601e 49be
00000350: 91fc 3b3e 19a9 b0bd b0cb 3dbe c412 ffbd
00000360: 2a09 a7bd a8f6 66be 5d87 273e e2eb 68be
00000370: c715 0fbd cf8c c4bd 603b 2bbe b9cc 953c
00000380: 8899 23b9 6758 233e 54c2 3bbd 7153 6a3e
00000390: a544 aabd 53e0 043d ac22 0f3e 33ee 2c3e
000003a0: d1f9 47ba d118 7d3d 7c91 5d3e 7c55 98bd
000003b0: 30f2 cd3d 6cbe 4a3e e004 373e cdd9 003e
000003c0: 2a0c 353e ea68 efbd a36e 69be 4d77 3cbe
000003d0: 64eb e13d 7310 f43d 5d78 d03d 99e5 0a3e
000003e0: 4b02 86bd 415b 9fbd 6be6 a93c f5c1 bd3d
000003f0: da3f 053e f10a 5f3d d645 b7bc 64fc 103c
0.09344386 -0.13618584 -0.060785737 0.044521194 -0.04437027 -0.15609081 -0.05049761 -0.020028578
-0.13103285 -0.0895443 0.08780809 0.19362028 0.09783789 -0.029429037 0.063959025 -0.16856283
0.097645536 -0.024081577 -0.21969682 -0.16520806 -0.08648066 0.03825323 -0.22065362 -0.21515392
-0.1839014 -0.09411268 0.092584714 -0.12877855 -0.23216991 -0.21597405 -0.104119785 -0.19851594
0.20500441 -0.120503955 0.10844459 -0.21221809 0.14999893 -0.033499043 0.17566897 0.18168876
0.13306192 0.1466335 0.19086413 -0.16355179 -0.21874605 0.0117480755 -0.12480176 -0.090234645
-0.03166734 0.026254456 0.038630433 0.13069776 -0.16591813 0.08687461 -0.037360534 0.070548736
0.032084547 0.21464625 0.086489476 -0.0004907682 0.09913889 0.13245685 0.17356896 -0.14349031
0.014961165 0.02773352 0.04956436 -0.07849969 0.20416312 0.17359902 0.09371451 0.05637912
-0.086119846 -0.10915481 0.18363094 -0.2232588 -0.15397751 0.042530783 -0.06302634 -0.008498748
0.09206582 -0.17704675 -0.18622376 0.14831327 -0.109497435 -0.20539917 -0.014389398 0.10209349
-0.1482661 0.0020391373 0.06906299 -0.19484782 -0.007604312 0.03951581 0.07412928 -0.040406704
0.1769038 -0.03934879 0.08352446 -0.048160743 -0.20389713 -0.1052313 -0.07740698 -0.033279132
0.0465029 -0.028620731 -0.09214731 -0.041704293 -0.11359527 0.061776645 0.016042603 0.13704461
0.1602017 0.20289803 0.07432637 0.14373407 0.003832962 0.15861121 0.1126264 0.16875127
0.06517921 0.13619253 -0.12298871 0.064817764 0.040964287 0.21822417 -0.1315717 -0.12109855
0.09713266 -0.20740192 -0.08762462 -0.14056249 0.12283039 -0.1541662 0.02633935 0.08032436
-0.049574178 -0.049634125 0.0040356475 -0.12824312 -0.015217496 0.0067474353 -0.007078699 -0.10702771
0.01363594 0.13325307 -0.12139303 -0.08215355 0.053966474 -0.009260363 -0.20720594 0.16034362
0.048198294 0.13147905 -0.1993988 -0.19616716 -0.06766235 -0.053961392 0.1600363 -0.030454334
-0.037607145 -0.1708389 0.08332766 -0.05884231 0.12867677 0.050438475 0.1255782 -0.13931619
-0.07284855 0.011079065 0.17608944 0.046888273 -0.1181122 -0.073042236 0.17705137 0.09741003
0.108552046 -0.18129738 -0.035333034 -0.08632117 0.033557635 -0.07369805 0.20099059 0.0014305998
-0.039101075 0.18082783 0.05811692 -0.16712832 -0.15098098 0.09310446 -0.023395 0.015971063
-0.19019078 -0.17482115 -0.08075208 -0.070362546 0.21227339 -0.06982718 0.18736714 0.15276942
-4.0254636e-05 0.04533605 -0.10302876 -0.09638261 0.20653181 -0.067598484 0.2116404 0.021691566
-0.077385694 -0.17575224 -0.21899754 -0.19640493 0.18358065 -0.08626003 -0.18534732 -0.12454751
-0.08156045 -0.2255503 0.1636023 -0.22746232 -0.034932878 -0.095971696 -0.16721869 0.018286096
-0.00015602086 0.15951692 -0.045839623 0.22883393 -0.08313874 0.032440495 0.1397807 0.16887741
-0.0007628473 0.061791245 0.21637529 -0.0743818 0.10055959 0.19799203 0.17872953 0.12583084
0.17680421 -0.11689933 -0.22796111 -0.18404885 0.11031225 0.119172 0.101792075 0.13564147
-0.06543406 -0.07781077 0.020739755 0.0926551 0.13012639 0.054453794 -0.022372168 0.008849237

mlp.bias f4 [128]
00000000: 2bd1 063d de02 c5bd af74 903d 0499 813d
00000010: 5d4e d33d 0a2e 79bc e40b 6abd 0c6f 28bc
00000020: 5abc 443d 00f4 37bc 9796 c2bc 577d b6bd
00000030: f986 013d d14f c83d 4b2d 85bd 6348 843d
00000040: c0c8 bbbc 024d dbbc 3592 cc3d 4b84 61bd
00000050: 879d 413c 186d 37bd 4074 b1bd 188c 633c
00000060: 9c7b 8dbd aa6b b93d d6e0 c3bd b363 9b3d
00000070: 7c7e b63b 519a 51bd 1708 5dbb a0c4 76bd
00000080: 2f52 5bbd 8aae c73d 0990 c8bd 24a2 c83d
00000090: 555a 313d 0ec5 74bd be81 3dbd 86a5 3a3b
000000a0: 2b33 dfbc ad4c 4c3c 82c9 883d 82e8 f5bc
000000b0: 4b5b 08bd 1efb c4bb b281 b13c 1a77 bebd
000000c0: a788 b6bd 1a68 0f3d 2899 7cbb ff34 aa3c
000000d0: b5cf 2ebb c7cf 5abd ca66 a6bd 98f5 80bd
000000e0: 7d2f 1d3c c3c0 80bd e7db 2d3d 194c a3bc
000000f0: 2bc5 833b 829d 82bd 885b a4bd d0e7 113d
00000100: 4492 66bc b440 79bd e1fa 4dbd f622 73bd
00000110: fce9 95bc 8abe 303d 6ae1 933b 0782 a0bc
00000120: 8834 98bd 4059 b23d b0d8 9d3d 291e 303d
00000130: cc8e 993d b9d1 bcbc e80f 053d 04b1 4ebd
00000140: 79e2 5abd 58e9 a73d d3cc 913d 538f a13c
00000150: f113 0e3d 6456 8cbd ad00 9cbc 3523 03bd
00000160: de75 753d a1cf 87bd d34b dabc e1be 9c3d
00000170: 3872 343d 2c76 b0bd ddd1 84bd 9fcb a83d
00000180: a6b1 233d 4fe7 4bbd ee16 c23d 1139 8d3d
00000190: 7fda aabc 2d68 793d fe52 633d 7df0 1c3d
000001a0: 67ac 423d 13a8 9b3c caab 70bd 651e 253d
000001b0: 662b 72bd 54de b9bd 6c0c 9d3c 4ff0 d9bc
000001c0: 6acf 47bd f1ea de3c 0882 84bd 9712 36bc
000001d0: 8553 9b3d 19bd 533d 348f ff3b 586d 8d3d
000001e0: a759 7c3c 595e 373d 21a7 963d 5191 363d
000001f0: d620 233d bbef 03bb 808c 263d 0fb6 71b9
0.032914322 -0.096196875 0.07053506 0.063280135 0.10317681 -0.0152087305 -0.057140246 -0.010280382
0.04803119 -0.011227608 -0.023753447 -0.089106254 0.03162286 0.09780849 -0.065027796 0.06459119
-0.022922873 -0.026770119 0.09988824 -0.055057805 0.011817343 -0.044781774 -0.08664751 0.013888381
-0.06908342 0.090537384 -0.095643684 0.075873755 0.0055692773 -0.05117256 -0.0033726746 -0.06024611
-0.053545173 0.097500876 -0.097930975 0.09796551 0.043299038 -0.05975824 -0.04626631 0.0028480007
-0.027246078 0.012469453 0.066790596 -0.030018095 -0.03329019 -0.006011381 0.021668289 -0.093000606
-0.08912783 0.03501139 -0.0038543437 0.020777224 -0.0026674096 -0.05342081 -0.08125074 -0.06296843
0.009593842 -0.062867664 0.042446043 -0.019933747 0.004021307 -0.063776985 -0.08025271 0.035621464
-0.014072958 -0.06085272 -0.050288085 -0.059359513 -0.018300049 0.043150462 0.0045129554 -0.019593252
-0.074318945 0.08708429 0.077073455 0.042997513 0.074979395 -0.023049222 0.032485873 -0.050461784
-0.053438637 0.08198804 0.07119145 0.019721663 0.034686986 -0.06852415 -0.019043291 -0.032015998
0.05992686 -0.06631399 -0.026647484 0.07653595 0.04405424 -0.086162895 -0.06485341 0.08241963
0.03996434 -0.04978114 0.0947703 0.0689565 -0.02085614 0.060890365 0.05549907 0.038315285
0.047527697 0.019001042 -0.05875758 0.04031219 -0.05912342 -0.09075609 0.019170962 -0.026603846
-0.04878179 0.027211638 -0.06470114 -0.011112831 0.075842895 0.05169401 0.0077990536 0.06905621
0.015402234 0.04476771 0.07356096 0.04457218 0.039826237 -0.0020131904 0.040661335 -0.00023051373

logits.weight f4 [2, 128]
00000000: 55ea 71be 6042 08be 58f7 44be c526 ab3c
00000010: dfa4 903e 08f2 ecbd fe49 0dbe efe6 05be
00000020: 81a8 c43d 676c 5b3e 8703 88bc 9839 eebd
00000030: 35e4 ec3c 1720 d23c b3f6 83be 49dd 3fbe
00000040: f6d4 083c ad33 28be eaab b33c 317d 683d
00000050: 0541 583e 27bc 933d 08e1 103d b131 333e
00000060: 3685 f43d 5c41 24be bbe3 a83d 5b42 2abe
00000070: 678a 2fbe 829d 91be f13e 8d3e 4bb2 973e
00000080: d4be 893e fa80 913e b602 04be c3a4 3b3e
00000090: 147f e2bd 3791 a3bc 74a5 883e 6724 243e
000000a0: 7afa e3bb f2c3 013e e9f2 0f3e 3e5c 9bbe
000000b0: 2c1c f8bb 785f 263e 7380 edbc c56a c6bd
000000c0: 32b4 67bd dbd8 52be b557 4cbe 3621 803e
000000d0: 03fc 203d d272 e6bd e6e9 733e 0a4a 1bbd
000000e0: 63a6 fabd 6fca 683c 7144 0e3c d411 88bd
000000f0: d71b 95bd 102e 8e3d 63df 27be 60bd 8b3d
00000100: db07 493c 8da6 873e 5a14 3fbe 897c 4bbe
00000110: 08ff c73d ca42 79be df41 a2be 6411 073e
00000120: c3ed 5dbe c183 0b3d ddcc dc3d 98ce 91be
00000130: 7315 973e ef48 07be 2351 81be 12c1 e3bd
00000140: 464e 313c d88c 6cbe 8cb3 533e 3d8c bc3d
00000150: 31ba 6c3e 20b1 6bbe 90ae 30be 144a 6dbe
00000160: e278 12be 8d40 10be 80cf 9d3e 8e14 62be
00000170: f50f e7bd 59de 753e 4a55 0cbe 3743 99bd
00000180: 443a 373e c47c 5f3e b976 073e e566 1fbd
00000190: 2698 4e3e 3f6f f93d aa6d 53be 4ac2 8abe
000001a0: 5639 19be ae56 dcbc 9114 183d 51d1 8cbe
000001b0: e9fd 11be 03d9 a9bd 7ce2 193e a53d 083e
000001c0: 01fd 1c3e 1874 4bbe 1d98 243d 7243 693e
000001d0: 1bc5 0abe 92aa 5abe 2411 933e 2005 21bd
000001e0: a910 433e 67ee 4f3d 3180 9fbe e988 553e
000001f0: 20e9 77be b784 21bc 3d4b 813e 6782 79be
00000200: 3475 1e3d 59f5 c6bd 4801 91be 0dec 4fbe
00000210: e4ea 9ebd 87df 83be 1308 0d3e 7358 453e
00000220: 14cd 90be cbc7 bb3d 7f3e 8bbe 9723 863c
00000230: 1aaa 85be 2fbd 453e d92a 123e 3ec0 62be
00000240: a29c 9dbe 8607 013e b5db ffbd 16a0 083e
00000250: 47c1 803d 5c27 853e cd6a 9abe 3266 0bbe
00000260: cbf5 cebd 2233 94be 48f8 10be 9059 983e
00000270: e31e cb3d 7beb 813d 1daf b6bd 9dd3 853c
00000280: 8e99 23be 67c7 4f3e 6983 7e3e 9a39 7d3e
00000290: f5f1 99be 6af7 763e 0082 97bd fbe9 8bbe
000002a0: d6a0 123e 059d 8fbe 5a32 06be 860a 76be
000002b0: cca0 373e 33d2 78be 4216 a4bc 1fd3 5c3d
000002c0: c88c 963e 0cd4 31be a734 653e a2d8 43be
000002d0: 645c 4bbe d742 273c 67ca 373e a32b 73bc
000002e0: 7a84 553e 9add ce3c 73ef 323e 1974 de3d
000002f0: 927b 983e 86e2 61be 02ff 893e 877d 9abe
00000300: c5af 593d 839e dcbc 073c 62be 90d5 673c
00000310: 4d92 85be 9792 28bd 2504 7dbd f0bb 11be
00000320: 5114 3ebe 148d 2fbe e2a2 97bd fcec fd3d
00000330: 3007 90be 3b6c 913e bfc2 e33c 79ff 60be
00000340: 518b b3bd 924b 1e3e f4ad eabd d18b 693c
00000350: 1b21 0d3e a82e 773e 9cf9 1d3c b227 1b3e
00000360: 7ef5 023e 21e0 57be 71e1 f2bd 79c2 4f3d
00000370: 7337 873e 9eca 20be 41d0 3d3e ea3a 70be
00000380: efe7 85be 6900 933d 87f2 ffbb bf99 013b
00000390: ed79 01be 3598 733d 5aaf 283e 9949 153e
000003a0: 65d3 413e 2aa6 583c 9b59 5abe ab66 483e
000003b0: 8c28 33be db65 7ebe c9e2 9cbe 339b 4e3e
000003c0: d5c6 5a3e 0607 4a3e 2372 72be f237 aa3d
000003d0: dc59 00bd 000b c9bd 8c65 4d3e 1a1f 85be
000003e0: 3425 4e3d 175e 333c 6b00 8b3e d042 163e
000003f0: 8380 b53d 8fe2 b03d f142 203e 5756 b93c
-0.23624547 -0.1330657 -0.19234979 0.02089251 0.28250787 -0.11569601 -0.13797757 -0.13076375
0.09602452 0.21428071 -0.016603244 -0.11632079 0.028917411 0.025650067 -0.25774154 -0.18736757
0.008351555 -0.16425963 0.021932561 0.056760017 0.21118553 0.072136216 0.035370857 0.17499425
0.119394705 -0.16040558 0.08246561 -0.16626875 -0.1714264 -0.2844048 0.27587083 0.29628214
0.26903403 0.28418714 -0.12891659 0.1832457 -0.110593945 -0.019966705 0.2668873 0.16029511
-0.0069573494 0.12672403 0.14057507 -0.30343813 -0.0075717177 0.16247356 -0.028991913 -0.096883334
-0.056568332 -0.20590536 -0.19955333 0.25025338 0.039302837 -0.11252369 0.23819694 -0.037912406
-0.12238767 0.01420842 0.00868331 -0.066440254 -0.07280701 0.069423795 -0.16393809 0.0682323
0.012269939 0.26494256 -0.18660107 -0.19871725 0.0976544 -0.24341884 -0.3169088 0.13190228
-0.2167273 0.034061197 0.10781262 -0.2847793 0.29508552 -0.13211416 -0.25257215 -0.111208096
0.0108218845 -0.23100603 0.2067396 0.09206436 0.23117901 -0.23016787 -0.1725409 -0.2317279
-0.14303926 -0.14087124 0.30822372 -0.22078153 -0.112823404 0.240106 -0.1370441 -0.07483523
0.1789332 0.21824938 0.13228883 -0.038916487 0.20175228 0.12179422 -0.20647302 -0.27101356
-0.14963278 -0.0268968 0.03712899 -0.27503446 -0.14257015 -0.08293345 0.15027803 0.13304766
0.15330888 -0.19868505 0.04018413 0.22779635 -0.13551752 -0.2135413 0.28724015 -0.03931153
0.19049324 0.050764468 -0.3115249 0.20853008 -0.24210024 -0.009858302 0.25252715 -0.24366151
0.038685992 -0.09714765 -0.2832129 -0.2030489 -0.077596456 -0.25756475 0.13772611 0.19272022
-0.28281462 0.09168967 -0.27196118 0.016374392 -0.2610634 0.19310449 0.14274158 -0.22143647
-0.30783564 0.12600526 -0.12493078 0.13342318 0.06286865 0.2600659 -0.30159608 -0.13613203
-0.10105475 -0.2894526 -0.14157212 0.2975583 0.099180005 0.063437425 -0.08920119 0.016336257
-0.15976545 0.2029091 0.24854816 0.24729005 -0.3006741 0.24117818 -0.073978424 -0.2732695
0.14319167 -0.28049484 -0.13105145 -0.24027452 0.17932433 -0.24298935 -0.020030145 0.05391228
0.29404283 -0.17366046 0.22383367 -0.19125608 -0.19859463 0.010208807 0.17948304 -0.014841947
0.20851317 0.025252152 0.17474155 0.108619876 0.29781777 -0.22059068 0.26952368 -0.30173895
0.053146143 -0.026931053 -0.22093211 0.014150038 -0.2608818 -0.041155424 -0.06177153 -0.14231849
-0.18562438 -0.17143661 -0.07404114 0.12398717 -0.28130484 0.28402886 0.027802823 -0.21972455
-0.08766807 0.15458515 -0.1145896 0.014254526 0.1378216 0.24138892 0.009642031 0.15151861
0.1278896 -0.21081592 -0.11859406 0.050722573 0.26409492 -0.15702292 0.18536474 -0.23459974
-0.26153514 0.071778126 -0.007810894 0.0019775478 -0.12644167 0.059471328 0.16473141 0.14578857
0.18928297 0.01322321 -0.21323244 0.19570415 -0.17495936 -0.24843542 -0.30641773 0.20176391
0.21364911 0.19729242 -0.23676352 0.08311452 -0.031335697 -0.09816551 0.20058268 -0.2600029
0.05032845 0.010947726 0.27148756 0.14673924 0.08862402 0.086369626 0.15650536 0.022624178

logits.bias f4 [2]
00000000: ee21 a63d e72e 123d
0.0811194 0.03568926
