algorithm-part/checkpoints/model_his_aml.pt (torch, 54175 bytes, 4 tensors)

mlp.weight f4 [128, 100]
00000000: b449 bf3d b27e 0bbe 253b 79bd 6955 363d
00000010: 8dbd 35bd acdf 1fbe db0d 4fbd 399e a4bc
00000020: e431 06be a262 b7bd 5bd4 b33d db43 463e
00000030: dc5e c83d 1d19 f1bc 9efb 823d 0b9d 2cbe
00000040: a9f5 c73d cf05 c6bc 150c 61be d23d 29be
00000050: 1823 b1bd 2199 1c3d ac05 62be 6256 5cbe
00000060: d952 3cbe c6d0 c0bd 1688 bd3d d1e1 03be
00000070: 6fd2 6dbe e927 5dbe 6e5d d5bd c24a 4bbe
00000080: 17ec 513e bbca f6bd ac17 de3d 554f 59be
00000090: f398 193e e144 09bd 9dc9 333e 9af3 393e
000000a0: 7828 083e 2a0e 163e eb58 433e 3a92 27be
000000b0: 050c 60be 694a 403c f7a6 ffbd 5ce5 b8bd
000000c0: a5f6 01bd a74d d63c 933a 1e3d 43d5 053e
000000d0: 12e6 29be f2ea b13d 9f5f 19bd 114f 903d
000000e0: 923c 033d 97bd 5b3e 9606 b13d 004f 06ba
000000f0: 75e9 ca3d 5c8b 073e b6a4 313e 80f3 12be
00000100: 82b4 733c a5b7 e23c 7603 4b3d bbd1 a0bd
00000110: 7b09 513e daaa 313e 7aeb bf3d 48f0 663d
00000120: c36f b0bd 9393 dfbd 7204 3c3e 0b9f 64be
00000130: 29b2 1dbe 551b 2e3d 9e20 81bd f4bb 0bbc
00000140: 5d81 bc3d 0052 35be 68b1 3ebe 09df 173e
00000150: 3e40 e0bd b953 52be 2cdd 6bbc 10ff d03d
00000160: a8dd 17be 705d 033b 0961 8d3d bd8b 47be
00000170: 880a fabb edc0 213d 83c9 973d 79d0 25bd
00000180: 701d 353e d43b 21bd 8a0d ab3d 6545 45bd
00000190: 0aca 50be 2383 d7bd 2e87 9ebd 544f 08bd
000001a0: 7479 3e3d 4875 eabc 5cb7 bcbd c0d1 2abd
000001b0: e5a3 e8bd c408 7d3d 686b 833c 0d55 0c3e
000001c0: 8b0b 243e 21c4 4f3e 0e38 983d a72e 133e
000001d0: b031 7b3b 9b6a 223e eea7 e63d c3cc 2c3e
000001e0: 4e7c 853d af75 0b3e c3e0 fbbd cebe 843d
000001f0: ccc9 273d c975 5f3e 5cba 06be c601 f8bd
00000200: 1eed c63d cc60 54be 2a74 b3bd 3eef 0fbe
00000210: c28d fb3d 60dd 1dbe 40c5 d73c ba80 a43d
00000220: ec0d 4bbd c84c 4bbd 183d 843b cb51 03be
00000230: 1052 79bc 3819 dd3b b0f3 e7bb f930 dbbd
00000240: e868 5f3c 1f73 083e 2b9c f8bd c03f a8bd
00000250: 940b 5d3d 68b8 17bc 6c2d 54be bf30 243e
00000260: 346b 453d 13a2 063e d42e 4cbe acdf 48be
00000270: 3092 8abd 4006 5dbd 2fe0 233e a07a f9bc
00000280: 9409 1abd 06f0 2ebe 52a7 aa3d e403 71bd
00000290: 79c3 033e 3498 4e3d 3397 003e 88a8 0ebe
000002a0: 4031 95bd 9884 353c 6b50 343e 8c0d 403d
000002b0: 11e4 f1bd cc96 95bd 954c 353e 8a7e c73d
000002c0: 2a50 de3d a6a5 39be 00b9 10bd c8c8 b0bd
000002d0: 5c73 093d a2ee 96bd 1bd0 4d3e 9882 bb3a
000002e0: 1428 20bd 8f2a 393e 440b 6e3d 5123 2bbe
000002f0: 639a 1abe 2ead be3d 80a6 bfbc 60d5 823c
00000300: 00c1 42be f203 33be fa60 a5bd de19 90bd
00000310: d35d 593e 2e01 8fbd cddc 3f3e 376f 1c3e
00000320: b856 26b8 ecb1 393d 6400 d3bd f563 c5bd
00000330: 927c 533e b470 8abd e4b7 583e 50b0 b13c
00000340: 9c7c 9ebd 21f8 33be 1f40 60be 731d 49be
00000350: 5cfc 3b3e 95a8 b0bd 2dcb 3dbe 9b11 ffbd
00000360: ca08 a7bd ddf5 66be f786 273e 3ceb 68be
00000370: bc15 0fbd 0d8c c4bd 3a3b 2bbe f2ca 953c
00000380: 6aee 23b9 2658 233e f1c1 3bbd e452 6a3e
00000390: 1244 aabd 2be0 043d 4d22 0f3e 04ee 2c3e
000003a0: 75ee 47ba 911b 7d3d 1192 5d3e fe54 98bd
000003b0: d5f3 cd3d d0bd 4a3e 4504 373e 49d9 003e
000003c0: 8f0b 353e b368 efbd 386e 69be 1077 3cbe
000003d0: 3beb e13d a60f f43d d577 d03d 32e5 0a3e
000003e0: ff01 86bd e25a 9fbd 7de5 a93c 67c1 bd3d
000003f0: 6c3f 053e 3f0f 5f3d 4145 b7bc a8fe 103c
0.0934023 -0.13622549 -0.06084742 0.044515047 -0.044370223 -0.15612668 -0.050550323 -0.020094978
-0.1310497 -0.089543596 0.08780738 0.19361822 0.09783718 -0.02943092 0.063956484 -0.16856782
0.09763653 -0.024172692 -0.21977265 -0.16527489 -0.08649272 0.038231973 -0.22072476 -0.21517327
-0.18390979 -0.094148204 0.09254472 -0.12879111 -0.23224805 -0.21597256 -0.10418211 -0.19852737
0.20500217 -0.120503865 0.10844359 -0.21221669 0.14999752 -0.033512954 0.17557378 0.18159333
0.13296688 0.1465384 0.19076888 -0.16364375 -0.21879585 0.011736491 -0.12483018 -0.09028122
-0.03172936 0.026160074 0.03863008 0.13069634 -0.16591671 0.086873904 -0.037444707 0.07046331
0.032040186 0.21459042 0.08643834 -0.0005123466 0.0990781 0.13236755 0.17347988 -0.143507
0.014874579 0.02767546 0.049563847 -0.07852503 0.20413773 0.17350331 0.093710855 0.056381494
-0.08615067 -0.109168194 0.18361071 -0.22326295 -0.15399994 0.042506535 -0.06305049 -0.008528698
0.092043616 -0.17707062 -0.18622363 0.14831175 -0.10949753 -0.2053975 -0.014395993 0.10204899
-0.14830649 0.0020044707 0.069032736 -0.194869 -0.00763065 0.03949063 0.07411482 -0.04048202
0.17687011 -0.039363697 0.08352192 -0.048161883 -0.20389572 -0.10523059 -0.07740627 -0.03327878
0.046502545 -0.028620377 -0.092146605 -0.04170394 -0.113593854 0.061775938 0.016042426 0.1370432
0.16020028 0.20289661 0.074325666 0.14373265 0.0038329177 0.1586098 0.11262499 0.16874985
0.0651785 0.13619111 -0.12298729 0.064817056 0.040963933 0.21822275 -0.13157028 -0.12109713
0.09713195 -0.2074005 -0.08762391 -0.14056107 0.122828975 -0.15416479 0.026339173 0.08032365
-0.049573824 -0.04963377 0.0040356033 -0.1282417 -0.015217319 0.006747391 -0.0070786104 -0.107027
0.013635851 0.13325165 -0.12139162 -0.08215284 0.05396612 -0.0092602745 -0.20720452 0.1603422
0.04819794 0.13147764 -0.19939739 -0.19616574 -0.06766164 -0.05396104 0.16003488 -0.03045398
-0.03760679 -0.17083749 0.08332695 -0.0588416 0.12867536 0.05043812 0.12557678 -0.13931477
-0.07284784 0.011078976 0.17608802 0.04688792 -0.11811078 -0.07304153 0.17704995 0.09740932
0.10855134 -0.18129596 -0.03533268 -0.08632046 0.03355728 -0.07369734 0.20098917 0.0014305888
-0.03910072 0.18082641 0.058116212 -0.16712691 -0.15097956 0.09310375 -0.023394823 0.015970886
-0.19018936 -0.17481974 -0.080751374 -0.07036184 0.21227197 -0.06982647 0.18736573 0.152768
-3.9658247e-05 0.045335695 -0.10302809 -0.09638206 0.20652989 -0.06759778 0.21163899 0.021690518
-0.07738611 -0.17575122 -0.2189946 -0.1964014 0.18357986 -0.086259045 -0.18534537 -0.1245453
-0.08155973 -0.22554727 0.16360079 -0.22745985 -0.034932837 -0.09597025 -0.16721812 0.018285248
-0.00015633708 0.15951595 -0.045839254 0.22883183 -0.08313765 0.032440346 0.13977928 0.16887671
-0.00076267804 0.061793867 0.21637751 -0.07438086 0.10056273 0.1979897 0.17872722 0.12582888
0.1768019 -0.11689892 -0.22795951 -0.18404794 0.11031195 0.11917047 0.10179106 0.13563994
-0.065433495 -0.077810064 0.020739311 0.09265404 0.13012475 0.0544579 -0.02237189 0.008849777

mlp.bias f4 [128]
00000000: 226e 063d 7f02 c5bd 3374 903d 2286 813d
00000010: dc94 d33d 1f76 79bc 531b 6abd c56c 2abc
00000020: e9c6 443d 7cbf 37bc 03ab c2bc f87c b6bd
00000030: a0a7 013d 815e c83d ec2c 85bd e049 843d
00000040: cca3 bbbc 028a dbbc ac9c cc3d 9098 61bd
00000050: 1638 403c 8a80 37bd 6359 b1bd 2ee8 633c
00000060: 3d7b 8dbd 9c5a b93d 55d2 c3bd c136 9b3d
00000070: 4932 b63b bcce 51bd b807 5dbb 50a6 76bd
00000080: 2924 5bbd 57b2 c73d eed9 c8bd c5a1 c83d
00000090: e7a4 313d 50c4 74bd 0a63 3dbd e8f6 483b
000000a0: 9b61 dfbc acce 4e3c 23c9 883d 62c3 f5bc
000000b0: 3278 08bd 4022 c3bb cd7f b13c bb76 bebd
000000c0: 3666 b6bd 5664 0f3d 3831 7bbb 5108 a93c
000000d0: 3af7 2dbb 68cf 5abd 6b66 a6bd 7ff6 80bd
000000e0: efa4 1b3c 08bf 80bd 46a3 2d3d 3a8b a3bc
000000f0: 4aa4 853b 448e 82bd bf9e a4bd 6a79 123d
00000100: 19a3 66bc 9dd7 78bd 82fa 4dbd 814d 73bd
00000110: a9ce 94bc e278 303d bb2d 963b 09e9 a0bc
00000120: c035 98bd ba63 b23d f1d4 9d3d 0cbc 2f3d
00000130: 6d8e 993d 8a29 bdbc cff1 043d 76ab 4ebd
00000140: 8bd9 5abd 2cec a73d 7804 923d 6f72 a13c
00000150: 241f 0e3d 0712 8cbd a3a5 9cbc 9b2b 03bd
00000160: 056c 753d 42cf 87bd b7f0 d9bc 31db 9c3d
00000170: 8126 343d ef9d b0bd a4e2 84bd 6ca9 a83d
00000180: f4df 233d 37dd 4bbd 6f0d c23d c932 8d3d
00000190: 7294 aabc 5064 793d 142b 633d 5168 1d3d
000001a0: 4992 423d 2c9f 9b3c 0475 70bd 6364 243d
000001b0: 1034 72bd b0e5 b9bd 026d 9d3c f0ef d9bc
000001c0: 4ed5 47bd 92ea de3c 5036 84bd ebf4 35bc
000001d0: a34d 9b3d 53b0 533d 2ed8 ff3b c487 8d3d
000001e0: 7b36 7d3c fa5d 373d d2fa 963d 4ba9 363d
000001f0: 5ffd 223d 0edd 04bb a9a5 263d 979e a7b9
0.032819875 -0.09619617 0.07053413 0.06324412 0.10331127 -0.015225916 -0.057154965 -0.010401909
0.048041258 -0.011215087 -0.023763185 -0.08910555 0.031654 0.0978365 -0.06502709 0.06459403
-0.022905253 -0.026799206 0.0999082 -0.055077136 0.011732122 -0.04480032 -0.08659627 0.013910336
-0.069082715 0.090504855 -0.09561602 0.07578803 0.0055601937 -0.051222548 -0.0033726525 -0.0602172
-0.053501282 0.097508125 -0.09807192 0.0979648 0.043370154 -0.05975753 -0.04623703 0.0030664746
-0.027268222 0.012622517 0.06678989 -0.030000392 -0.033317752 -0.0059550107 0.021667385 -0.0929999
-0.08906214 0.035007797 -0.0038328897 0.020633848 -0.0026545064 -0.053420454 -0.081250034 -0.062970154
0.009499772 -0.06286436 0.042392038 -0.01996385 0.0040784227 -0.06374791 -0.08038091 0.03576032
-0.014076971 -0.0607525 -0.05028773 -0.059400085 -0.01816495 0.043084033 0.004583088 -0.01964237
-0.07432127 0.087104276 0.07706631 0.042903945 0.07497869 -0.023091096 0.03245717 -0.050456487
-0.05343012 0.08199343 0.071297586 0.019707887 0.034697667 -0.06839376 -0.01912195 -0.032024007
0.05991747 -0.06631328 -0.02660404 0.07658995 0.043982033 -0.086238734 -0.06488541 0.0823544
0.0400085 -0.049771514 0.094752185 0.06894452 -0.020822737 0.06088668 0.055461004 0.038429562
0.04750279 0.018996798 -0.058705345 0.0401348 -0.059131682 -0.090770125 0.019217018 -0.026603669
-0.048787408 0.027211461 -0.06455672 -0.011105756 0.075831674 0.051681828 0.007807753 0.06910661
0.015454884 0.044767357 0.07372059 0.044595044 0.039792415 -0.002027336 0.04068533 -0.0003197088

logits.weight f4 [2, 128]
00000000: bfe2 71be 0142 08be fcf2 44be 12c4 aa3c
00000010: 73a7 903e 1904 edbd a748 0dbe 61cb 05be
00000020: 2998 c43d 929f 5b3e ed6a 85bc da38 eebd
00000030: 04f5 ec3c 455c d13c 54f6 83be 8ed2 3fbe
00000040: 8eff 0a3c 0414 28be 3ec7 b33c 0b10 683d
00000050: 1f2b 583e 736e 943d b032 123d c742 333e
00000060: 7884 f43d 8f43 24be 0ead a83d e408 2abe
00000070: 7688 2fbe f49b 91be 923e 8d3e 06c9 973e
00000080: cbc9 893e 446a 913e 9fcb 03be 64a4 3b3e
00000090: 8644 e2bd d890 a3bc 2aa7 883e 7f49 243e
000000a0: 470d dcbb 7fdb 013e 8af2 0f3e 7177 9bbe
000000b0: 3de9 ecbb 7f6e 263e 49ee edbc 666a c6bd
000000c0: d844 67bd 31dc 52be 365a 4cbe a71b 803e
000000d0: 0631 213d 1472 e6bd 28e9 733e d5e5 1abd
000000e0: 024e fabd 80dc 663c 1c01 0f3c 9674 88bd
000000f0: aaa5 95bd b185 8e3d 87cb 27be 7811 8c3d
00000100: 87c4 473c 46b2 873e fb13 3fbe d383 4bbe
00000110: f075 c83d 4139 79be ed4e a2be 670b 073e
00000120: ccff 5dbe 63fe 0b3d 0fcc dc3d 04c9 91be
00000130: 1415 973e f945 07be e568 81be 46ca e3bd
00000140: d290 313c e380 6cbe 42e4 533e 918f bc3d
00000150: 035a 6c3e a7fb 6bbe d679 30be 614b 6dbe
00000160: e37c 12be 2e40 10be 3fe6 9d3e 585a 62be
00000170: e619 e7bd b1cf 753e d552 0cbe 6059 99bd
00000180: bf20 373e da9c 5f3e 29ae 073e d9da 1ebd
00000190: 2798 4e3e 2b6a f93d bd64 53be 4ad9 8abe
000001a0: 8b37 19be 54df dcbc 9ed2 183d 78c5 8cbe
000001b0: a446 12be f4dc a9bd ef36 1a3e 463d 083e
000001c0: cd45 1d3e b973 4bbe 50f1 243d 3363 693e
000001d0: 3b48 0abe 57c6 5abe 0a21 933e 3d16 21bd
000001e0: 1f48 433e 08ee 4f3d 478b 9fbe c1a9 553e
000001f0: a4ad 77be 054b 22bc c465 813e 6b55 79be
00000200: d658 1e3d faf4 c6bd e902 91be 47df 4fbe
00000210: 50f6 9ebd 8fda 83be bc06 0d3e c43c 453e
00000220: bec8 90be ee5f bb3d ae67 8bbe 3823 863c
00000230: dcaa 85be 20d5 453e 7a2a 123e f3c9 62be
00000240: 98ad 9dbe f5e7 003e f1e1 ffbd e5ba 083e
00000250: b0eb 803d 60fa 843e a894 9abe 5e77 0bbe
00000260: 6cf5 cebd 7a31 94be ccdc 10be ab3c 983e
00000270: 5f1b cb3d 5fe6 813d beae b6bd e761 843c
00000280: c7af 23be 9df3 4f3e 084c 7e3e dc38 7d3e
00000290: 1b00 9abe acf6 763e c389 97bd 61fc 8bbe
000002a0: 1a61 123e 99a8 8fbe fb31 06be c2d2 75be
000002b0: c946 373e 04e1 78be 71a7 a3bc c0d2 5c3d
000002c0: 997e 963e c2cf 31be dd36 653e accd 43be
000002d0: 4169 4bbe 7842 273c 08ca 373e 72ba 74bc
000002e0: 0e58 553e cbd3 cf3c 35e3 323e 9fd6 de3d
000002f0: c09d 983e f40d 62be f5f4 893e 4592 9abe
00000300: f0ff 593d b45e ddbc a83b 62be 9251 683c
00000310: d8af 85be b7b5 28bd 1398 7cbd eeb5 11be
00000320: 4c01 3ebe 68ab 2fbe 1ba2 97bd 68d7 fd3d
00000330: d106 90be 976a 913e 7743 e53c 12fa 60be
00000340: 4693 b3bd cf3f 1e3e d00f ebbd 226d 693c
00000350: 6180 0d3e 2779 773e d4b4 1a3c 4329 1b3e
00000360: 86f9 023e c2df 57be 423d f3bd 42db 503d
00000370: bd39 873e 27bc 20be afcd 3d3e 0f2f 70be
00000380: 10db 85be cbbe 923d 1375 03bc bdbd f13a
00000390: 1d7a 01be 35a0 733d 84a6 283e ec77 153e
000003a0: 8fd1 413e fdb7 593c ae88 5abe 274f 483e
000003b0: 01df 32be f862 7ebe d20c 9dbe d49a 4e3e
000003c0: 1d7d 5a3e a706 4a3e f287 72be daf6 a93d
000003d0: b64b 02bd e5d1 c8bd 8e44 4d3e 981c 85be
000003e0: f744 4d3d b85d 333c 910b 8b3e 1721 163e
000003f0: 540a b53d f5fa b03d d90c 203e bef2 b73c
-0.23621653 -0.13306428 -0.19233316 0.020845447 0.28252754 -0.11573047 -0.13797246 -0.13065864
0.09599335 0.2144759 -0.016286338 -0.11631937 0.028925426 0.025556693 -0.2577387 -0.18732664
0.008483781 -0.16413885 0.021945592 0.056655925 0.211102 0.07247629 0.03569287 0.17505942
0.11939329 -0.16041397 0.082361326 -0.16604954 -0.171419 -0.28439295 0.275868 0.29645556
0.26911768 0.28401387 -0.12870644 0.18324429 -0.11048226 -0.019966528 0.26690036 0.16043662
-0.00671545 0.12681387 0.14057365 -0.30364564 -0.0072299526 0.16253088 -0.029044287 -0.09688263
-0.05646214 -0.20591809 -0.19956288 0.25021097 0.039353393 -0.112522274 0.23819411 -0.03781684
-0.1222191 0.014090657 0.008728292 -0.06662862 -0.073069885 0.06959093 -0.16386233 0.068392694
0.012192852 0.265032 -0.18659966 -0.19874506 0.0978812 -0.24338247 -0.3170084 0.13187943
-0.2167961 0.03417815 0.107811086 -0.28473675 0.2950827 -0.13210286 -0.2527534 -0.11122565
0.0108377505 -0.23096041 0.20692542 0.092070706 0.23081212 -0.23045217 -0.17233977 -0.23173286
-0.14305453 -0.14086983 0.30839726 -0.22104776 -0.112842366 0.24005009 -0.13703473 -0.0748775
0.17883585 0.21837178 0.1325003 -0.03878293 0.20175229 0.12178453 -0.20643897 -0.27118903
-0.14962594 -0.02696196 0.037310235 -0.27494407 -0.1428476 -0.082940966 0.15060018 0.13304624
0.15358658 -0.19868363 0.040269196 0.22791748 -0.13504116 -0.21364723 0.28736144 -0.03932785
0.19070481 0.050764114 -0.31160948 0.20865537 -0.24187332 -0.009905581 0.25272954 -0.2434899
0.03865894 -0.09714694 -0.28322533 -0.20300017 -0.07761824 -0.25752684 0.137721 0.19261461
-0.28278154 0.091491565 -0.2722754 0.016374215 -0.26106918 0.19319582 0.14274016 -0.2214735
-0.30796504 0.12588485 -0.12494267 0.13352545 0.06294954 0.2597227 -0.3019154 -0.13619754
-0.10105404 -0.28943998 -0.14146727 0.29733786 0.0991733 0.06342768 -0.08920048 0.016159965
-0.15985022 0.20307775 0.24833691 0.24728721 -0.30078205 0.24117535 -0.07399323 -0.27340987
0.14294854 -0.28058317 -0.13105004 -0.24006179 0.17898096 -0.24304587 -0.019977303 0.053911924
0.2939346 -0.1736441 0.2238421 -0.19121426 -0.1986437 0.0102087185 0.17948163 -0.01493703
0.20834371 0.025369545 0.17469485 0.108807795 0.29807854 -0.22075635 0.269447 -0.3018972
0.053222597 -0.027022697 -0.2209307 0.014179604 -0.2611072 -0.04118892 -0.061668467 -0.14229557
-0.18555182 -0.1715523 -0.07403966 0.12394601 -0.281302 0.28401634 0.027986271 -0.21970394
-0.087683246 0.15454029 -0.11477625 0.014247211 0.13818504 0.2416731 0.009442527 0.15152459
0.12790498 -0.2108145 -0.118769184 0.05099035 0.26411238 -0.15696774 0.18535493 -0.23455451
-0.26143694 0.07165297 -0.008023518 0.0018443387 -0.12644239 0.059478957 0.1646977 0.14596528
0.18927597 0.013288495 -0.21341202 0.19561444 -0.17467882 -0.24842441 -0.30673844 0.2017625
0.2133679 0.197291 -0.23684672 0.08299036 -0.031810485 -0.09805659 0.20045683 -0.25998378
0.050114598 0.010947637 0.27157262 0.1466106 0.088398606 0.08641616 0.15629901 0.022454616

logits.bias f4 [2]
00000000: 8d56 a63d 79c4 113d
0.08121977 0.03558776
